handwritten_digits/model_trained.pth (torch, 224455 bytes, 10 tensors)

conv1.weight f4 [32, 1, 5, 5]
0.013207985 0.21767354 -0.12676086 0.18748754 -0.011365534 -0.028800204 0.079808064 0.0051153945
-0.21378705 -0.18781224 -0.087440014 -0.18851496 0.038937315 -0.1676054 0.15517846 -0.15735112
-0.1952097 -0.20940085 0.12172856 -0.071816504 -0.01169437 0.052206773 0.046962965 0.006472877
-0.17946234 0.0044563524 -0.004769584 0.2351125 0.13736646 -0.06307095 0.092344545 0.03553835
-0.04123079 -0.1221298 0.11967178 0.056229115 0.11655357 0.21811555 -0.035340827 -0.20611289
-0.1774461 0.19229129 0.18614475 -0.10758351 -0.18145175 -0.14386266 -0.044199258 0.0722309
-0.10207602 -0.064215 -0.069983736 -0.10599683 0.14115831 0.19030283 0.121350445 -0.15926477
0.19670801 -0.09550952 -0.06351116 -0.0053532235 0.1436762 0.16315964 0.12527217 0.12809928
-0.17642887 0.19340117 0.07006999 -0.19381376 0.046353772 -0.020414649 0.17397986 -0.05064438
0.18557456 0.10050811 0.0026063016 0.12967576 -0.15476668 0.18132539 0.21526289 0.13747601
-0.14187178 -0.028468598 0.07353235 -0.031771988 -0.011662492 -0.14127119 -0.23450515 0.13198121
0.13385527 0.03765068 -0.054391287 0.03197302 -0.20417652 0.2265004 0.22531667 0.11483742
0.036407456 0.086607724 0.21384306 0.14147119 0.22521658 0.21166395 0.10542749 0.04688532
0.18668522 0.20218603 -0.02394197 0.14886662 0.16197352 0.18125373 -0.10207194 -0.124899045
-0.13230611 0.15366058 -0.11458466 -0.06858083 0.0925542 -0.16076282 -0.18758762 -0.19394173
-0.18565995 -0.08999924 -0.14113154 -0.08190341 0.115349405 -0.16923653 0.03196458 -0.12913331
-0.2127271 0.06630389 -0.19336425 -0.12233288 -0.17011206 -0.21431711 -0.17017995 -0.052010193
-0.018983202 -0.07778397 -0.009784713 -0.1287741 0.022121483 0.13709152 0.047646057 0.0069941017
-0.013510964 -0.2109505 -0.13898526 -0.21964858 -0.00817123 -0.16795453 -0.046491567 -0.006001626
0.045607176 0.035845216 -0.030715168 0.025734315 -0.013851997 -0.022652699 0.06250549 -0.10960431
-0.0845243 0.008464942 0.19061846 0.050587814 0.06317477 -0.10750349 -0.1063469 0.079891786
0.07401025 0.1775997 0.06331505 0.07417849 0.009589737 0.18559718 0.09772791 0.10829999
0.1723786 -0.011603787 0.13778357 0.072165444 -0.16217323 -0.050218098 -0.20081826 -0.07904261
0.20169343 -0.09458303 -0.024563048 0.16976173 0.120464824 0.16560228 -0.054058045 -0.03555213
0.08179656 -0.036557697 -0.20824184 0.044661414 -0.16297324 0.0834984 -0.10224131 -0.095534496
-0.09217156 -0.105742745 -0.043709956 0.21772501 0.04203271 0.112985246 -0.20453882 0.14284766
0.0846922 -0.0025460315 -0.055615533 0.12444738 0.115444206 0.18119386 0.000904163 0.056025542
-0.16917121 0.06420928 0.16758794 -0.18278368 0.083265565 0.1359912 0.23361097 -0.06870732
-0.17344046 0.09061884 0.15831354 -0.0367112 0.08566309 -0.067207225 -0.23799303 -0.15625285
0.193656 0.22646889 0.06347892 0.03985067 -0.07757489 0.009478786 -0.13336898 0.19938348
-0.07743066 -0.12302235 0.088584535 0.1766793 0.12852767 -0.15280554 0.11032911 -0.15877053
0.20301774 -0.16577867 0.096192695 0.09878139 -0.050008472 -0.013668309 -0.09003143 -0.12836854
00000000: 4e66 583c d0e5 5e3e 99cd 01be bcfc 3f3e
00000010: 8136 3abc 68ee ebbc 6972 a33d 0a9f a73b
00000020: feea 5abe da51 40be c013 b3bd 110a 41be
00000030: bc7c 1f3d c0a0 2bbe 1ae7 1e3e a720 21be
00000040: 0de5 47be 2d6d 56be d34c f93d 8814 93bd
00000050: be99 3fbc c5d6 553d 3d5c 403d 6e1a d43b
00000060: fac4 37be 9806 923b 2c4a 9cbb 55c1 703e
00000070: cba9 0c3e 582b 81bd 231f bd3d a990 113d
00000080: 9ee1 28bd 301f fabd 7a16 f53d 8050 663d
00000090: a3b3 ee3d af59 5f3e 8bc1 10bd 420f 53be
000000a0: 6eb4 35be 02e8 443e bb9c 3e3e be54 dcbd
000000b0: 7dce 39be bc50 13be 480a 35bd cbed 933d
000000c0: 3b0d d1bd 2783 83bd a253 8fbd de14 d9bd
000000d0: ce8b 103e bfde 423e 9586 f83d 4e16 23be
000000e0: d36d 493e 7f9a c3bd 2412 82bd 186a afbb
000000f0: db1f 133e 5213 273e 5947 003e 752c 033e
00000100: c5a9 34be f50a 463e db80 8f3d 1d77 46be
00000110: 74dd 3d3d 9f3c a7bc c727 323e 7b70 4fbd
00000120: 4207 3e3e 32d7 cd3d 7cce 2a3b b9c9 043e
00000130: 287b 1ebe 5dad 393e e06d 5c3e 83c6 0c3e
00000140: d646 11be fa36 e9bc 2198 963d 5823 02bd
00000150: 0914 3fbc 65a9 10be 1e22 70be 1526 073e
00000160: 5b11 093e 9937 1a3d 66c9 5ebd 24f6 023d
00000170: a613 51be b9ef 673e 6ab9 663e e22f eb3d
00000180: fc1f 153d 645f b13d adf9 5a3e d3dd 103e
00000190: 2d9f 663e 6fbe 583e 5eea d73d d20a 403d
000001a0: 692a 3f3e db09 4f3e f321 c4bc 7e70 183e
000001b0: 63dc 253e 949a 393e 180b d1bd 12cb ffbd
000001c0: 417b 07be 3359 1d3e 5dab eabd 1b74 8cbd
000001d0: 0e8d bd3d 029f 24be f816 40be a998 46be
000001e0: a41d 3ebe 8651 b8bd c984 10be fabc a7bd
000001f0: 4f3c ec3d 574c 2dbe 4bed 023d 863b 04be
00000200: 22d5 59be 55ca 873d 4701 46be a989 fabd
00000210: db31 2ebe f275 5bbe a743 2ebe a408 55bd
00000220: a982 9bbc 344d 9fbd 1050 20bc 5cdd 03be
00000230: 1d38 b53c b861 0c3e 8328 433d c72e e53b
00000240: 175d 5dbc 6803 58be 2752 0ebe 8feb 60be
00000250: 9fe0 05bc 46fc 2bbe f16d 3ebd 4aa9 c4bb
00000260: 97ce 3a3d 6fd2 123d 609e fbbc c5d0 d23c
00000270: 7df3 62bc 2792 b9bc e102 803d 3978 e0bd
00000280: 141b adbd 8ab0 0a3c 7c31 433e 2b35 4f3d
00000290: c661 813d ca2a dcbd 67cc d9bd 4e9e a33d
000002a0: b092 973d b2dc 353e 52ab 813d e4ea 973d
000002b0: 461e 1d3c 300d 3e3e 9225 c83d 63cc dd3d
000002c0: 0484 303e cf1d 3ebc 2317 0d3e 7acb 933d
000002d0: bd10 26be 7eb1 4dbd 4da3 4dbe 18e1 a1bd
000002e0: b988 4e3e bfb4 c1bd 7238 c9bc 05d6 2d3e
000002f0: 43b6 f63d a593 293e f86b 5dbd 1c9f 11bd
00000300: f484 a73d 86bd 15bd 593d 55be e3ee 363d
00000310: 75e2 26be 3601 ab3d e463 d1bd 97a7 c3bd
00000320: 71c4 bcbd a78f d8bd 3609 33bd 4ef3 5e3e
00000330: 7e2a 2c3d cf64 e73d a072 51be a846 123e
00000340: 1b73 ad3d 52db 26bb 1dcd 63bd 45de fe3d
00000350: 036e ec3d e28a 393e 5a05 6d3a 0a7b 653d
00000360: 383b 2dbe 2880 833d 2c9c 2b3e a52b 3bbe
00000370: 2387 aa3d 4741 0b3e b737 6f3e 6cb6 8cbd
00000380: 609a 31be 5f96 b93d f21c 223e 7c5e 16bd
00000390: 2170 af3d f1a3 89bd 72b4 73be bf00 20be
000003a0: c24d 463e 76e7 673e 3c01 823d 753a 233d
000003b0: 95df 9ebd e94c 1b3c e191 08be 2f2b 4c3e
000003c0: f793 9ebd 24f3 fbbd cf6b b53d 6beb 343e
000003d0: c29c 033e 0e79 1cbe 3af4 e13d be94 22be
000003e0: e2e3 4f3e e2c1 29be ad00 c53d e64d ca3d
000003f0: afd5 4cbd 0bf1 5fbc 6662 b8bd 0b73 03be

conv1.bias f4 [32]
-0.06130423 0.17290078 0.046974324 0.2093852 0.22330756 -0.14112951 -0.17248046 0.039832115
0.05071102 0.23457664 0.04896939 -0.11149532 -0.038740113 -0.011221149 -0.03297484 -0.09513548
-0.032425173 0.19095512 0.2342498 -0.05458685 0.2214698 0.15677807 0.14778292 0.143049
-0.054495092 0.06482011 0.08378715 -0.10204882 -0.022227343 0.2490638 0.06717797 0.02466933
00000000: 251a 7bbd e70c 313e 2668 403d 1369 563e
00000010: bdaa 643e 4184 10be b89e 30be 0027 233d
00000020: 5cb6 4f3d dc34 703e 2194 483d a957 e4bd
00000030: f4ad 1ebd e9d8 37bc a010 07bd 64d6 c2bd
00000040: 42d0 04bd bd89 433e 2edf 6f3e 7696 5fbd
00000050: fbc8 623e 6e8a 203e 6854 173e 707b 123e
00000060: 3f36 5fbd 68c0 843d 9998 ab3d f9fe d0bd
00000070: 1e16 b6bc 950a 7f3e 9b94 893d 5617 ca3c

conv2.weight f4 [16, 32, 5, 5]
0.031288046 0.03557866 0.015320337 0.02155577 0.013264798 0.012269686 0.021832151 0.0015826867
-0.015372278 0.0403067 0.04257965 -0.002322592 0.024609646 0.03503085 -0.01823411 0.015811542
0.045272935 -0.008147654 0.029702913 -0.019509817 -0.013200309 0.01954977 0.03469031 -0.033825226
0.010292119 0.01541163 -0.0020415105 -0.002744638 0.021765921 -0.015051904 0.0032270385 -0.03580264
0.026179615 0.008627166 0.018253662 -0.012862092 -0.028480912 -0.022459945 -0.037149422 0.0032719935
0.012079442 0.00918854 -0.0016401752 -0.036596667 0.038736403 -0.000982586 -0.01268803 -0.0005219702
0.012281253 0.024184482 0.028884264 0.012854043 -0.0022574943 0.019783106 -0.004784489 -0.04242581
-0.02662259 -0.020198185 -0.03148516 0.020669721 -0.016328583 0.030827627 -0.03750898 -0.03676346
0.031330176 -0.024410028 -0.010200354 0.0043916837 -0.034062367 0.008548767 -0.0026700716 -0.0073639434
-0.031123 -0.003381789 0.04837624 0.015061708 -0.036125924 -0.029061014 0.034452382 0.0027078998
-0.0010903697 -0.011714453 -0.050493293 -0.03373752 0.029603118 0.016586423 -0.035798553 -0.00090356503
0.020375188 0.05951469 0.0076337885 0.016598409 -0.0045183045 0.016799614 -0.0010595211 0.017265156
-0.009375695 -0.021461632 0.022983316 0.0626451 0.0068626995 -0.009364534 0.012004378 0.025397636
-0.011783843 -0.016799878 -0.009486306 0.001645353 0.033016305 0.029522043 -0.01632214 -2.093576e-05
0.039110787 0.007820152 0.0061569246 0.0217798 0.019533025 0.0068360353 -0.03569214 -0.030226067
0.0137532195 0.016891766 -0.009690951 -0.026126828 -0.014858312 0.028724603 0.048665836 0.006795749
0.040571887 -0.028401237 0.05050235 0.005310945 0.03094624 0.013182652 0.0051039485 0.008983307
0.03981793 0.016284162 0.022113772 0.03158757 0.048699472 0.023430124 0.051079754 0.013531363
0.020560239 0.042792078 0.023653768 0.018534781 -0.0028071753 -0.042775866 0.017434394 0.008907008
-0.009068068 0.012147038 -0.016871275 0.011827714 -0.024331613 0.00729469 -0.00021219265 0.0062321764
-0.031727765 -0.015548421 -0.01858683 0.03208674 0.0030682539 -0.01329063 0.010910788 0.007859945
0.007444467 0.0044483063 -0.042109117 0.027019657 0.015780162 0.01628156 -0.0020579644 0.0112576485
0.023047296 0.02709177 -0.025339458 0.00962075 -0.027902618 -0.008379399 0.017842703 0.018234078
0.017167341 0.026685901 0.030609977 -0.0064336834 -0.0069817104 -0.019910432 0.024134839 -0.03853619
-0.007599008 0.02498447 0.005631002 0.017562086 -0.0139968 -0.041409142 0.03788111 -0.0061575915
0.0024953573 -0.026836593 -0.01835231 -0.018633343 -0.009142557 -0.033896957 0.02402875 -0.026756383
-0.0074851154 0.003325129 -0.019439215 -0.009447818 -0.015035157 -0.0333071 0.0064588767 0.027167993
-0.034144983 -0.005347854 0.001327764 0.06747788 -0.005163894 0.016577337 0.020912267 0.038682707
0.0048169927 -0.022707248 -0.014267178 -0.022843175 0.011547248 0.03836527 -0.0205094 -0.001007095
-0.037822347 -0.036178395 0.0001505816 0.004435039 -0.008895199 -0.032632846 -0.010513612 0.05812579
0.00057019613 -0.0237361 0.0059236116 0.021778557 0.03208464 0.015830774 -0.021033796 0.0021150575
0.04600656 0.054221902 0.024480393 0.0031742908 0.022804655 0.031967655 -0.023668401 -0.015135832
00000000: e527 003d eeba 113d 2702 7b3c ba95 b03c
00000010: 9854 593c cb06 493c 57d9 b23c 2772 cf3a
00000020: 02dc 7bbc a318 253d 0068 2e3d a136 18bb
00000030: 2b9a c93c 827c 0f3d b35f 95bc 3587 813c
00000040: 1d70 393d bd7d 05bc 8653 f33c 0dd3 9fbc
00000050: 1c46 58bc d726 a03c 6d17 0e3d 528c 0abd
00000060: 47a0 283c 1081 7c3c ddca 05bb 62df 33bb
00000070: 724e b23c 439c 76bc b97c 533b caa5 12bd
00000080: a276 d63c f558 0d3c b488 953c 86bb 52bc
00000090: cd50 e9bc ebfd b7bc fe29 18bd f16e 563b
000000a0: dae8 453c 888b 163c 26fb d6ba 63e6 15bd
000000b0: 10aa 1e3d 1dca 80ba 74e1 4fbc d4d4 08ba
000000c0: 4f37 493c 891e c63c b19e ec3c c499 523c
000000d0: 78f2 13bb 2e10 a23c 34c7 9cbb b0c6 2dbd
000000e0: 9e17 dabc aa76 a5bc 95f6 00bd 8c53 a93c
000000f0: 85c3 85bc 388a fc3c 04a3 19bd 4895 16bd
00000100: 1254 003d 8af7 c7bc 631f 27bc 1de8 8f3b
00000110: fb84 0bbd 2110 0c3c 5efc 2ebb 3c4d f1bb
00000120: a9f5 febc 01a1 5dbb 2a26 463d 62c5 763c
00000130: c7f8 13bd 5d11 eebc f11d 0d3d 0577 313b
00000140: bcea 8eba faed 3fbc 0ed2 4ebd 5b30 0abd
00000150: 3d82 f23c 40e0 873c 81a1 12bd 39dd 6cba
00000160: dee9 a63c adc5 733d dc24 fa3b 63f9 873c
00000170: 490e 94bb 589f 893c a1df 8aba a86f 8d3c
00000180: 849c 19bc 4ed0 afbc 8247 bc3c 134c 803d
00000190: 7fe0 e03b b46d 19bc 03ae 443c b40e d03c
000001a0: 0511 41bc e69f 89bc 746c 1bbc e3a8 d73a
000001b0: 1b3c 073d 36d8 f13c 02b6 85bc 349f afb7
000001c0: a232 203d 1820 003c 07c0 c93b 8d6b b23c
000001d0: b903 a03c d200 e03b ec31 12bd a89c f7bc
000001e0: 2f55 613c 9a60 8a3c cbc6 1ebc ee07 d6bc
000001f0: 4770 73bc dc4f eb3c d455 473d e0ae de3b
00000200: b52e 263d b6a9 e8bc 8ddb 4e3d 7007 ae3b
00000210: f882 fd3c 0dfc 573c 063f a73b b82e 133c
00000220: 2018 233d 5d66 853c f127 b53c f861 013d
00000230: 1979 473d 88f0 bf3c 0139 513d a6b2 5d3c
00000240: f26d a83c bf46 2f3d 8cc5 c13c 41d6 973c
00000250: 96f8 37bb bf35 2fbd 93d2 8e3c b3ee 113c
00000260: 3c92 14bc 5f04 473c a135 8abc 07c9 413c
00000270: 1753 c7bc 4b08 ef3b 0880 5eb9 4937 cc3b
00000280: f9f4 01bd cebe 7ebc 6843 98bc 636d 033d
00000290: c214 493b f1c0 59bc 29c3 323c 00c7 003c
000002a0: b7f0 f33b 19c3 913b 9c7a 2cbd 5458 dd3c
000002b0: 6645 813c e860 853c eade 06bb 0072 383c
000002c0: afcd bc3c 8fef dd3c b294 cfbc 5aa0 1d3c
000002d0: 0894 e4bc bf49 09bc dc2a 923c a25f 953c
000002e0: 86a2 8c3c 649c da3c c6c1 fa3c a6d1 d2bb
000002f0: d5c6 e4bb 341b a3bc 6db6 c53c 20d8 1dbd
00000300: 1901 f9bb 3bac cc3c 4584 b83b 5dde 8f3c
00000310: d652 65bc a29c 29bd 3929 1b3d 9fc5 c9bb
00000320: 2689 233b 6ad8 dbbc 9557 96bc f4a4 98bc
00000330: aaca 15bc 89d7 0abd f1d7 c43c 3430 dbbc
00000340: b345 f5bb 68ea 593b fd3e 9fbc 05cb 1abc
00000350: 0556 76bc 076d 08bd fca4 d33b 698f de3c
00000360: 9cdb 0bbd 0d3d afbb 5e08 ae3a d831 8a3d
00000370: e235 a9bb 32cd 873c 3450 ab3c c271 1e3d
00000380: ddd7 9d3b 8d04 babc e2c0 69bc 9c21 bbbc
00000390: ab30 3d3c e724 1d3d 5403 a8bc 8000 84ba
000003a0: 9beb 1abd cc2f 14bd 71e5 1d39 ce53 913b
000003b0: 2bbd 11bc 05aa 05bd 4941 2cbc 4f15 6e3d
000003c0: 3779 153a 3672 c2bc db1a c23b f268 b23c
000003d0: 2f6b 033d 8aaf 813c 114f acbc c79c 0a3b
000003e0: 6071 3c3d c917 5e3d 1b8b c83c c307 503b
000003f0: d4d0 ba3c 84f0 023d 3ce4 c1bc 48fc 77bc

conv2.bias f4 [16]
-0.00017228427 -0.027069077 -0.0013435398 0.01288076 0.055829175 -0.014511588 -0.021413367 -0.02758014
0.038218606 -0.025969459 0.0034366648 -0.012310796 -0.009237853 0.014651492 0.0052695754 0.025244748
00000000: 35a7 34b9 f8bf ddbc b719 b0ba d309 533c
00000010: 22ad 643d 03c2 6dbc 166b afbc bfef e1bc
00000020: 1d8b 1c3d e7bd d4bc ab39 613b 39b3 49bc
00000030: 5d5a 17bc d00c 703c 67ac ac3b 13ce ce3c

fc1.weight f4 [128, 256]
0.05503567 0.037945613 0.021582687 0.028300432 0.03829266 0.032192238 0.010664664 -0.028554928
-0.058246218 0.022473143 -0.014649176 0.050318923 0.017658293 0.041425854 -0.044389363 0.010503666
-0.004913288 0.009731189 -0.024872376 -0.013258837 0.015965872 -0.007237856 -0.01907202 -0.05233319
-0.04176492 0.03856013 -0.061709143 -0.019328369 -0.040398903 0.029063186 0.0018845762 -0.01671029
-0.037865043 0.039670657 -0.0017860213 0.03159148 0.035425957 0.047421146 -0.04265795 -0.00070980296
0.052675355 0.016182901 -0.045714825 -0.056685407 -0.025230791 -0.023147523 -0.062464744 0.0314458
-0.049179543 -0.052714765 0.042016536 0.036354844 -0.011748516 0.004839709 -0.052378196 0.039347332
-0.038119834 0.01889395 -0.043492746 -0.014250019 -0.042597905 -0.021482302 -0.037082374 -0.05224305
0.0195974 -0.044040747 -0.04366901 0.028880365 -0.0471481 0.020663738 -0.031165406 -0.03640621
-0.053492066 -0.024438154 -0.006943615 -0.015371114 -0.059278376 -0.062002968 0.02181301 0.012250871
0.029156126 -0.061614156 0.009688084 0.04840502 0.025526265 0.020073824 0.04135636 0.035794094
-0.025371946 0.03375228 0.0523957 0.039534993 0.013042529 0.041601725 -0.002962257 -0.035672285
-0.029541353 -0.05650723 -0.023926083 0.0047978354 0.022266196 0.057395898 0.045855038 -0.005749895
-0.038297076 -0.017166872 0.0532391 0.0024749192 -0.058207672 -0.028977605 -0.05419498 -0.033246595
0.051124472 -0.010920197 -0.0031843954 0.01132864 -0.027033083 -0.021262292 -0.03362841 -0.05009851
0.0033892286 0.045503896 0.022075307 0.034371633 0.030302117 0.047138896 0.0065013403 -0.060309518
0.05549498 0.009376223 0.02896645 -0.035003044 -0.0049997894 0.05301525 -0.04893119 0.042764947
-0.061073452 0.018588213 -0.038173463 0.020983664 -0.043448787 0.019355666 0.0066481438 -0.052826844
-0.015653422 -0.053076543 0.031951923 -0.017983383 0.03944766 -0.024445005 0.055456642 0.035236575
0.05337085 0.047463823 -0.03606195 0.00011823743 0.026135247 -0.056474946 -0.009227434 -0.0491769
0.048024688 0.008789913 -0.012367277 -0.0020184743 0.040377524 0.05933906 -0.021123253 -0.053122737
0.026164625 0.035909045 0.04018252 0.035013527 -0.016313124 0.05047016 -0.017829012 -0.059117913
0.036450155 -0.032520995 0.0462075 -0.00093189336 -0.021191634 0.040142287 0.03950928 -0.023375057
-0.032041304 -0.019749455 -0.0533549 -0.029141098 -0.054868534 -0.030616587 0.051982407 -0.040359948
-0.045635495 0.0060251066 0.037253402 0.04203596 -0.05056095 -0.046926502 -0.038143728 -0.043665364
-0.024214223 0.0025275033 -0.041045766 -0.0034848568 0.022070322 -0.046818197 0.039825063 -0.04701816
-0.015125119 0.058320664 0.021408925 -0.003226383 0.032024745 -0.020827873 -0.02872329 0.018471813
-0.023828752 -0.0031753124 0.05400021 0.0035341973 0.042141967 -0.02776773 0.044681903 0.038495984
-0.028905904 -0.03208673 0.042071864 -0.053765256 -0.04022747 0.05428817 -0.020709127 0.016254231
-0.0105625205 0.015673459 -0.014176899 -0.046722773 -0.016527181 0.054642264 -0.046297204 -0.02033942
-0.008346504 -0.0007692104 -0.025158282 -0.011187792 0.027665514 0.038912784 0.0039826497 0.021921312
-0.011616821 -0.0061104978 0.029292097 0.045717712 -0.05589312 0.020647127 0.0035834254 0.0546942
00000000: 156d 613d dc6c 1b3d 2dce b03c 4fd6 e73c
00000010: c4d8 1c3d 02dc 033d d8ba 2e3c 06ec e9bc
00000020: 9693 6ebd 9919 b83c 1903 70bc 371b 4e3d
00000030: 20a8 903c 28ae 293d 9fd1 35bd 9117 2c3c
00000040: a6ff a0bb 916f 1f3c 27c1 cbbc 983b 59bc
00000050: dcca 823c 892b edbb ed3c 9cbc 545b 56bd
00000060: b111 2bbd 3af1 1d3d bac2 7cbd 8756 9ebc
00000070: 5279 25bd eb15 ee3c e203 f73a 05e4 88bc
00000080: 6018 1bbd b37d 223d ee18 eaba 1166 013d
00000090: cf1a 113d ad3c 423d 1aba 2ebd 1212 3aba
000000a0: 1dc2 573d 0192 843c 783f 3bbd f52e 68bd
000000b0: ceb0 cebc e09f bdbc 08db 7fbd 50cd 003d
000000c0: 7d70 49bd 70eb 57bd 8819 2c3d d1e8 143d
000000d0: d97c 40bc 6c96 9e3b 858a 56bd ab2a 213d
000000e0: 8b23 1cbd 7cc7 9a3c 7325 32bd e978 69bc
000000f0: 247b 2ebd a7fb afbc b0e3 17bd cffc 55bd
00000100: ba8a a03c 1264 34bd 47de 32bd 8496 ec3c
00000110: 5e1e 41bd 0047 a93c 984e ffbc ae1e 15bd
00000120: 7f1a 5bbd 8632 c8bc 4487 e3bb 20d7 7bbc
00000130: e2cd 72bd d3f6 7dbd 33b1 b23c e1b7 483c
00000140: d4d8 ee3c 205f 7cbd c5ba 1e3c 5844 463d
00000150: 751c d13c dc71 a43c 4965 293d d49c 123d
00000160: d4d8 cfbc d53f 0a3d e09c 563d 72ef 213d
00000170: 55b0 553c 9266 2a3d 6d22 42bb 1a1d 12bd
00000180: b500 f2bc 2074 67bd a200 c4bc 2937 9d3b
00000190: 9967 b63c f617 6b3d 7ed2 3b3d 9d69 bcbb
000001a0: 65dd 1cbd 8aa1 8cbc 3e11 5a3d 4132 223b
000001b0: 2b6b 6ebd 7162 edbc 8efb 5dbd 952d 08bd
000001c0: e567 513d a0ea 32bc 4ab1 50bb c39b 393c
000001d0: 7c74 ddbc 422e aebc f2bd 09bd 1834 4dbd
000001e0: d21d 5e3b 4b62 3a3d 46d7 b43c 45c9 0c3d
000001f0: 253c f83c b714 413d 3209 d53b 1d07 77bd
00000200: b44e 633d bb9e 193c 0c4b ed3c 5a5f 0fbd
00000210: 46d5 a3bb 8526 593d 126c 48bd 4c2a 2f3d
00000220: 2828 7abd 4f46 983c c75b 1cbd efe5 ab3c
00000230: 5bf7 31bd c68f 9e3c acd8 d93b f660 58bd
00000240: 9b3b 80bc ca66 59bd 05e0 023d e351 93bc
00000250: df93 213d e440 c8bc 8126 633d 3a54 103d
00000260: 649b 5a3d 6d69 423d b2b5 13bd 3df6 f738
00000270: 9619 d63c 4652 67bd aa2e 17bc b86d 49bd
00000280: 89b5 443d 9103 103c 1fa0 4abc 6148 04bb
00000290: e762 253d 840d 733d ac0a adbc 3a97 59bd
000002a0: 3257 d63c 5d15 133d 6d96 243d 586a 0f3d
000002b0: 1aa3 85bc ccb9 4e3d 260e 92bc a025 72bd
000002c0: c24c 153d bc34 05bd 1344 3d3d 4e4a 74ba
000002d0: 149a adbc 3d6c 243d 7cd4 213d 0c7d bfbc
000002e0: be3d 03bd 9cc9 a1bc ab8a 5abd 50b9 eebc
000002f0: d4bd 60bd a3cf fabc 81eb 543d 7950 25bd
00000300: 49ec 3abd 426e c53b 0697 183d e62d 2c3d
00000310: 0019 4fbd 0136 40bd 993c 1cbd 74da 32bd
00000320: e85c c6bc 78a4 253b 9b1f 28bd 3262 64bb
00000330: d2cc b43c 70c4 3fbd 9b1f 233d 1d96 40bd
00000340: 59cf 77bc a6e1 6e3d c561 af3c b971 53bb
00000350: 612c 033d 379f aabc 1b4d ebbc 3352 973c
00000360: 8434 c3bc e718 50bb 532f 5d3d fe9d 673b
00000370: 0e9d 2c3d 2779 e3bc 5f04 373d f7ad 1d3d
00000380: 13cc ecbc 606d 03bd 8c53 2c3d f538 5cbd
00000390: 8fc5 24bd 465d 5e3d 30a6 a9bc 9827 853c
000003a0: 6c0e 2dbc a065 803c 3946 68bc 6160 3fbd
000003b0: 0364 87bc 91d0 5f3d 23a2 3dbd db9e a6bc
000003c0: c6bf 08bc d6a4 49ba be18 cebc 004d 37bc
000003d0: caa2 e23c 0363 1f3d e380 823b 5394 b33c
000003e0: 7b54 3ebc 923a c8bb fbf5 ef3c 7f42 3b3d
000003f0: 2ff0 64bd 2a24 a93c e7d7 6a3b 0707 603d

fc1.bias f4 [128]
0.05485729 -0.016502589 0.040260427 -0.05622051 0.041236196 0.016257728 0.034771178 -0.0019182038
-0.013218136 0.041882407 -0.005938017 0.020821683 0.03867059 -0.0028524613 0.03593749 0.057636816
-0.0038886447 0.027204845 -0.051711276 0.021938818 -0.043434758 -0.05489157 0.051371142 0.046758067
0.016247692 0.045634247 0.04793827 -0.055180404 -0.017154114 0.037716165 0.056069247 -0.014458882
0.0657129 0.024496596 0.050660305 -0.040281978 -0.051895723 -0.034860134 -0.026986983 0.055997826
0.040193286 0.04726648 0.031818785 -0.013285521 -0.0448724 -0.007471931 -0.014264516 -0.03956022
-0.03468163 0.037681215 0.040321276 0.05327424 -0.06230236 -0.047018062 0.04739806 0.018444221
-0.018701963 0.06131961 -0.017591702 -0.027684176 0.054506246 0.010094468 0.0330466 0.012757125
0.013586576 -0.017676722 -0.06141428 0.057570256 0.05015642 0.0066635786 -0.0070643807 -0.001401858
0.010624698 -0.044738397 -0.01739359 0.063124485 0.022991668 -0.00094577286 -0.05268547 -0.0024554932
0.062330786 -0.012324732 -0.05288264 0.005837204 -0.048423372 0.03900189 -0.015086539 0.025609838
-0.021094501 -0.05534111 -0.017616997 -0.02554959 0.053307116 -0.023127932 0.009389033 0.05989935
-0.05535321 -0.05720711 -0.055044394 -0.0011266115 0.0008675344 0.040114198 -0.045528404 0.024471039
-0.021033969 0.02972521 0.015623938 0.021626772 0.048327528 0.05084864 0.01843274 -0.04036747
0.0050566574 -0.004982177 0.0068314616 0.012031302 0.010834507 0.004539458 -0.014000462 -0.029868793
0.04971982 -0.03531784 0.044762563 -0.009854473 0.016313437 -0.0526144 -0.034603782 -0.019081388
00000000: 0ab2 603d 7030 87bc 1ee8 243d 7a47 66bd
00000010: 49e7 283d ed2e 853c 396c 0e3d 3d6c fbba
00000020: e190 58bc e38c 2b3d b293 c2bb 3c92 aa3c
00000030: 0d65 1e3d 5cf0 3abb 3133 133d 9514 6c3d
00000040: a2d8 7ebb b2dc de3c 34cf 53bd 09b9 b33c
00000050: a5e8 31bd fcd5 60bd 8c6a 523d 6385 3f3d
00000060: e119 853c faea 3a3d eb5a 443d d904 62bd
00000070: c986 8cbc 447c 1a3d dea8 653d f2e4 6cbc
00000080: 7c94 863d 16ad c83c 2e81 4f3d b7fe 24bd
00000090: 9c90 54bd 80c9 0ebd ce13 ddbc fa5d 653d
000000a0: b7a1 243d 7f9a 413d 6a54 023d 84ab 59bc
000000b0: 1fcc 37bd 1ad7 f4bb b7b5 69bc e609 22bd
000000c0: 530e 0ebd 9e57 1a3d ec27 253d 1736 5a3d
000000d0: c230 7fbd 0396 40bd 7824 423d 5618 973c
000000e0: dc34 99bc 452a 7b3d 791c 90bc edc9 e2bc
000000f0: f141 5f3d 4463 253c df5b 073d 4303 513c
00000100: 3b9a 5e3c c6ce 90bc 8a8d 7bbd cace 6b3d
00000110: d170 4d3d 265a da3b 527c e7bb 8dbe b7ba
00000120: 3713 2e3c 9c3f 37bd 017d 8ebc 6947 813d
00000130: 0659 bc3c beed 77ba b8cc 57bd 57ec 20bb
00000140: 914e 7f3d aced 49bc 789b 58bd 0446 bf3b
00000150: 9657 46bd 72c0 1f3d 882d 77bc b9cb d13c
00000160: 60ce acbc 5cad 62bd 8551 90bc 604d d1bc
00000170: 9058 5a3d ca76 bdbc 75d4 193c 0559 753d
00000180: 0cba 62bd 0152 6abd 3b76 61bd cfaa 93ba
00000190: 406b 633a c94e 243d fe7b 3abd 7d77 c83c
000001a0: 6e4f acbc 4982 f33c 8cfb 7f3c a12a b13c
000001b0: 16f3 453d aa46 503d 4200 973c 5c58 25bd
000001c0: 51b2 a53b 8841 a3bb 74da df3b f01e 453c
000001d0: 3783 313c bcbf 943b 3262 65bc 66af f4bc
000001e0: 03a7 4b3d 70a9 10bd f358 373d a874 21bc
000001f0: c2a3 853c 3282 57bd b2bc 0dbd 9250 9cbc

fc2.weight f4 [64, 128]
-0.020359026 0.016907578 0.018228244 0.0058477847 0.014926969 -0.030524928 -0.05328251 -0.049470264
0.02131588 -0.06537295 0.008754515 -0.02409657 0.029978836 -0.04470449 -0.11599508 -0.0054406114
0.07863741 0.044560373 -0.029814322 -0.050753515 0.11824737 -0.07296943 -0.07892617 -0.044648252
0.09448106 0.07395061 -0.049120385 -0.102141105 -0.026063366 0.08786241 -0.015243006 -0.06828786
0.029622167 -0.013096723 0.0667289 0.06714563 0.0911114 0.08419009 -0.054605365 0.09177838
-0.01844718 0.016388137 0.063009165 -0.03285401 0.053218085 0.052452147 0.06688408 -0.080025755
0.07805907 -0.072293475 0.004202513 0.029938752 -0.020011159 0.03726093 -0.0059131808 -0.029196862
0.066685654 -0.07727959 -0.046570037 0.0814699 0.05565612 0.00735972 -0.047148887 0.054279592
-0.06753915 0.04139047 0.04630282 0.00580248 -0.04386584 0.0438502 -0.041223094 -0.008659132
-0.03211356 0.033634495 -0.0851113 -0.03774358 0.06007874 0.038574345 0.033755757 0.033241842
0.07130973 0.017697593 -0.07983348 0.027753733 -0.07489826 -0.028612036 -0.07408766 0.030244282
0.024296733 -0.04912786 0.024019033 -0.038387842 0.038034733 0.10777135 0.04009683 0.12811108
-0.03734587 0.021221401 -0.075800695 -0.08799991 0.034439154 -0.0418824 0.1029732 0.01720223
0.07407034 -0.038431227 0.029275011 -0.019062513 0.027728658 -0.07834031 -0.047804322 -0.045225047
-0.012541414 0.01786634 0.07721868 0.08417056 0.07734354 0.086925626 -0.052244764 -0.07672118
-0.029949758 0.096116975 -0.09523589 -0.045844063 0.05362695 0.07263884 0.08339405 0.099957064
0.010359003 -0.039440848 0.010950766 0.012139199 -0.07966158 0.00091110927 -0.025302595 -0.09879472
-0.08014836 0.05303067 0.08726906 0.0030580591 0.050825782 -0.06630501 0.08414969 0.02983114
-0.03955121 -0.04745739 0.040643 0.011057541 -0.0892014 -0.05462051 -0.029407956 0.10222289
0.10682737 -0.077039115 -0.053020082 0.024319075 0.07913285 -0.028846748 0.049115196 0.056257647
-0.015570927 0.040398125 -0.05521861 -0.028294187 0.00459427 0.07494295 0.0243851 0.016534999
-0.040533762 0.0035309626 -0.103066646 -0.06416225 0.0817338 0.023044497 -0.038249314 -0.026188085
-0.0073580714 0.008022669 0.041067306 -0.0772818 -0.025012128 0.062097672 -0.035575695 -0.024589283
0.036913935 0.02655209 0.03783589 -0.039883077 -0.061858844 -0.11242419 0.06852156 -0.02546529
0.06941189 0.07335597 0.058247108 0.08010028 0.0024363822 -0.076265566 -0.011779694 -0.10420782
-0.10850623 0.028451016 0.109032266 -0.052650653 -0.009049326 0.0689505 -0.061459962 -0.0073590353
-0.08547796 -0.048223566 0.02813109 0.076434195 0.07263143 -0.03680425 0.018195525 0.012500295
0.08158489 0.006610293 -0.03077323 0.011554008 -0.01493061 0.0063068606 0.05492491 -0.045183014
0.07693245 0.027035508 -0.056406036 0.06404123 0.017137062 0.05721852 0.064059 -0.033026077
0.033623524 -0.07360048 0.07077253 0.06448087 -0.008327341 -0.015837675 -0.06553972 0.0283071
-0.0067518326 0.053063788 0.01774635 -0.12938803 -0.0081871515 0.052099224 0.08912416 -0.04906509
-0.017093666 -0.011106449 0.011196673 0.0038536615 0.045840368 0.061276514 0.07936249 -0.10676125
00000000: f9c7 a6bc c381 8a3c 6653 953c c69e bf3b
00000010: 3f90 743c 6a0f fabc c33e 5abd 55a1 4abd
00000020: a49e ae3c 41e2 85bd 196f 0f3c 2c66 c5bc
00000030: 2d96 f53c 0e1c 37bd d48e edbd 2847 b2bb
00000040: a70c a13d f084 363d 2a3d f4bc ebe2 4fbd
00000050: ad2b f23d ff70 95bd 0ba4 a1bd 16e1 36bd
00000060: 497f c13d 6b73 973d 7532 49bd 5b2f d1bd
00000070: d782 d5bc 35f1 b33d cdbd 79bc 81da 8bbd
00000080: 30aa f23c a393 56bc 29a9 883d a683 893d
00000090: 9d98 ba3d db6b ac3d e0a9 5fbd 4ef6 bb3d
000000a0: 8a1e 97bc 6a40 863c f30a 813d ed91 06bd
000000b0: 35fb 593d 10d8 563d 85fa 883d 8be4 a3bd
000000c0: 6fdd 9f3d 9a0e 94bd 3cb5 893b 1d42 f53c
000000d0: 71ee a3bc eb9e 183d 5bc3 c1bb 422e efbc
000000e0: 7d92 883d c344 9ebd 39c0 3ebd b1d9 a63d
000000f0: acf7 633d ce29 f13b 311f 41bd 4754 5e3d
00000100: f751 8abd 0e89 293d 07a8 3d3d bb22 be3b
00000110: abac 33bd 449c 333d 8cd9 28bd 08df 0dbc
00000120: 8289 03bd 53c4 093d d54e aebd 0399 1abd
00000130: 2015 763d 2200 1e3d 7a43 0a3d 9928 083d
00000140: d60a 923d 8bfa 903c bc7f a3bd cc5b e33c
00000150: 4264 99bd ca63 eabc 45bb 97bd dbc2 f73c
00000160: f109 c73c 4c3a 49bd 90c3 c43c 923c 1dbd
00000170: 4fca 1b3d 3ab7 dc3d 933c 243d 8d2f 033e
00000180: fcf7 18bd 81d8 ad3c 653d 9bbd 4c39 b4bd
00000190: 1210 0d3d e18c 2bbd 9de3 d23d b1eb 8c3c
000001a0: 31b2 973d 106a 1dbd 26d2 ef3c fd28 9cbc
000001b0: 3627 e33c e270 a0bd 77ce 43bd e63d 39bd
000001c0: 817a 4dbc 6e5c 923c d424 9e3d 9d61 ac3d
000001d0: 4a66 9e3d 1006 b23d 9bfe 55bd fe1f 9dbd
000001e0: 3259 f5bc fad8 c43d 090b c3bd fcc6 3bbd
000001f0: efa7 5b3d acc3 943d 80ca aa3d 4ab6 cc3d
00000200: cfb8 293c ba8c 21bd d76a 333c 7ee3 463c
00000210: 9c25 a3bd 82d7 6e3a 6347 cfbc e354 cabd
00000220: d324 a4bd b036 593d 1fba b23d b869 483b
00000230: b22e 503d ecca 87bd ac56 ac3d 6f60 f43c
00000240: 7300 22bd ae62 42bd 4679 263d b02a 353c
00000250: 39af b6bd c2b9 5fbd f4e8 f0bc 3c5a d13d
00000260: 4fc8 da3d afc6 9dbd 962b 59bd cc38 c73c
00000270: 6710 a23d 0450 ecbc 042d 493d 6b6e 663d
00000280: 341d 7fbc 8178 253d e92c 62bd 36c9 e7bc
00000290: 888b 963b b07b 993d 43c3 c73c 6874 873c
000002a0: bb06 26bd b967 673b 9b14 d3bd 7f67 83bd
000002b0: 0d64 a73d d0c7 bc3c 50ab 1cbd 6588 d6bc
000002c0: fa1b f1bb 8371 033c 3136 283d ec45 9ebd
000002d0: 3ce6 ccbc 215a 7e3d d2b7 11bd 776f c9bc
000002e0: 1133 173d c583 d93c cef9 1a3d 705c 23bd
000002f0: b35f 7dbd a73e e6bd 0855 8c3d 959c d0bc
00000300: d227 8e3d a83b 963d 8594 6e3d 9e0b a43d
00000310: b6ab 1f3b 1f31 9cbd 9eff 40bc e96a d5bd
00000320: 8438 debd 1b12 e93c 4f4c df3d 36a8 57bd
00000330: a043 14bc eb35 8d3d 71bd 7bbd 1024 f1bb
00000340: 120f afbd 1386 45bd 2c73 e63c 8889 9c3d
00000350: cabf 943d 0ec0 16bd c80e 953c 0ace 4c3c
00000360: fb15 a73d 289b d83b 2418 fcbc 064d 3d3c
00000370: 849f 74bc c8a9 ce3b f1f8 603d d311 39bd
00000380: c38e 9d3d 9279 dd3c 040a 67bd 0c28 833d
00000390: 0663 8c3c f85d 6a3d 5d31 833d 5a46 07bd
000003a0: d2b8 093d d9bb 96bd 30f1 903d 8c0e 843d
000003b0: 666f 08bc 03be 81bc b039 86bd 4be4 e73c
000003c0: 7a3e ddbb 6a59 593d cb60 913c 4c7e 04be
000003d0: 6723 06bc ff65 553d ba86 b63d 7af8 48bd
000003e0: 0408 8cbc d3f7 35bc 4072 373c b68d 7c3b
000003f0: 1cc3 3b3d 15fd 7a3d cd88 a23d a4a5 dabd

fc2.bias f4 [64]
-0.003838748 -0.0369155 0.08614393 0.084299944 0.01736061 0.039367262 0.082435936 0.0540183
-0.025766658 0.02634179 -0.008007502 -0.07657588 -0.04119694 0.011850226 0.0035219635 -0.05201076
-0.0595697 -0.028620828 0.028237544 -0.055324882 -0.043750364 0.07260813 0.106427655 -0.07776965
-0.031121982 0.0014018444 0.07580509 -0.064319946 0.055503353 -0.04074438 0.053208552 0.07652321
0.058708314 -0.07907328 0.060740277 0.057860903 -0.09194848 0.025198502 0.0438486 0.055738594
0.045147672 -0.070015155 -0.0881356 0.06928128 -0.04015533 -0.0467576 0.09531926 0.027720207
-0.0021172496 -0.017151458 0.08846298 0.055572454 0.049339756 -0.030164428 0.008123153 -0.059037935
0.026327336 -0.028756341 0.020617548 0.041535586 -0.017295917 0.036947895 0.03404536 0.031041538
00000000: 8193 7bbb b534 17bd 3b6c b03d 73a5 ac3d
00000010: d737 8e3c 913f 213d 2cd4 a83d 4b42 5d3d
00000020: 9914 d3bc bdca d73c e631 03bc d1d3 9cbd
00000030: 1fbe 28bd 7327 423c bed0 663b 3c09 55bd
00000040: 5cff 73bd 3a76 eabc 6c52 e73c 589c 62bd
00000050: 9533 33bd 92b3 943d bef6 d93d b245 9fbd
00000060: 87f3 febc 18be b73a b33f 9b3d 2dba 83bd
00000070: 7c57 633d 94e3 26bd 36f1 593d 33b8 9c3d
00000080: 2178 703d 2cf1 a1bd ccca 783d 8eff 6c3d
00000090: 7c4f bcbd 176d ce3c 979a 333d 274e 643d
000000a0: c4ec 383d 1b64 8fbd 7080 b4bd 58e3 8d3d
000000b0: ea79 24bd e684 3fbd bf36 c33d 7d15 e33c
000000c0: 8ec1 0abb 3781 8cbc 142c b53d f19f 633d
000000d0: 7c18 4a3d 641b f7bc f916 053c c3d1 71bd
000000e0: 6dac d73c 6b92 ebbc 22e6 a83c 3821 2a3d
000000f0: 2bb0 8dbc ad56 173d 2673 0b3d d34a fe3c

fc3.weight f4 [10, 64]
-0.02871034 -0.2141777 -0.01818537 0.07911266 -0.04079305 -0.13068472 -0.21331939 -0.1476952
0.06201749 0.11937902 -0.0030472518 0.072417445 0.029397218 0.029496515 -0.057354674 0.05341042
-0.041816175 0.0872136 0.06482763 -0.018582275 0.0666572 0.066555746 0.13291293 -0.0009903247
-0.044839785 0.03981584 0.13164291 0.023915222 -0.054022886 -0.041845452 -0.046582256 -0.02999083
0.14636259 0.13189152 0.08926329 -0.08095967 0.034197237 -0.0030433259 0.11480076 0.103853025
0.20968921 -0.11680264 0.019209996 -0.17727356 -0.09467536 -0.0743341 0.16893417 -0.0120074935
-0.13485837 0.15541872 -0.15078151 -0.22138669 0.0028149006 -0.070057414 0.065845445 -0.03260944
0.20204535 0.09268676 -0.08866818 0.113576375 0.022034833 -0.018870875 -0.21801658 -0.11806032
0.06775422 0.1174612 -0.054026455 -0.083641306 -0.033382926 0.039953575 -0.0633234 -0.026815457
0.051452216 -0.2660024 0.0712217 -0.068903945 0.11314382 -0.05578667 -0.13088721 0.14271419
-0.008913244 -0.014510185 -0.09801217 0.06434718 0.19092326 0.12038684 -0.25383663 0.041771844
0.14017646 0.024529329 -0.15616904 0.07383334 -0.091366865 -0.09886061 -0.05111521 0.033642177
0.053523295 0.009327909 0.06159216 -0.14978366 -0.073995724 0.047310464 -0.08070514 -0.00070464256
-0.18936273 0.05810764 0.054289326 0.24646819 -0.10089648 -0.10701102 0.11898109 -0.056963142
0.03651398 0.1170426 0.23426497 0.17178306 0.0640212 0.015857536 -0.091580525 -0.13547069
0.011444111 -0.10777943 0.1722338 -0.08037517 0.0062982026 -0.14021513 0.029105507 0.05445753
-0.08947122 -0.08594431 -0.14667673 0.05599908 -0.21058445 0.063218445 -0.094789244 0.14439468
0.005887017 -0.062435754 -0.12652406 -0.067258194 0.11768954 0.16011904 -0.103524074 0.10695785
-0.11009156 0.0654611 -0.035722733 -0.007453132 -0.036713913 -0.028384496 0.2639972 -0.09465413
0.14104599 -0.024154495 -0.046136152 -0.12363009 0.204003 0.12940946 -0.1741978 -0.0008916772
-0.009583128 -0.0087871 0.102646545 0.107382685 -0.050063055 -0.007249345 -0.045060813 -0.0022562325
-0.08831992 0.079555176 0.03282632 -0.0008693039 0.022385692 -0.005612682 -0.17443757 -0.0448845
0.21707869 0.10467453 0.07695276 -0.12383745 -0.09539883 -0.2588473 -0.16666329 0.09851641
0.09834832 0.0586824 0.1680207 -0.13307369 0.10414398 -0.04973992 0.02841957 -0.100409366
-0.0817973 -0.06816754 -0.08686455 0.18071811 -0.040731724 -0.043159958 0.050866015 -0.13181521
-0.0036386687 -0.18034068 -0.106722474 0.043790776 0.083447255 0.009075744 -0.052028883 -0.16249788
0.06886734 -0.040695105 -0.059731193 -0.11487004 -0.0978198 -0.08540101 0.17136548 0.090254284
0.16184697 -0.0964315 -0.10486016 -0.101768866 0.08127301 0.12068722 -0.10292764 -0.117870115
-0.13796459 -0.022240119 0.15099436 -0.051396035 -0.07273011 0.091477215 -0.14739786 0.08734345
0.10907806 0.0922894 0.05339095 0.19351085 -0.001078291 0.047396313 -0.09272585 0.08462535
-0.093669325 0.044871207 -0.036791336 -0.21365167 0.08687648 -0.1484374 0.10937575 -0.1784259
-0.18164548 0.04948021 -0.16840914 0.22283074 0.020805715 0.21223325 0.2348959 -0.043859437
00000000: f231 ebbc 6651 5bbe 7cf9 94bc d105 a23d
00000010: 9d16 27bd 37d2 05be 6670 5abe 693d 17be
00000020: 0d06 7e3d fd7c f43d 67b4 47bb 994f 943d
00000030: 6fd2 f03c ada2 f13c bcec 6abd e2c4 5a3d
00000040: 7047 2bbd 0b9d b23d 59c4 843d db39 98bc
00000050: 9283 883d 614e 883d 541a 083e c8cd 81ba
00000060: eca9 37bd ef15 233d 66cd 063e dbe9 c33c
00000070: 1a47 5dbd 2366 2bbd 09cd 3ebd 54af f5bc
00000080: 13e0 153e 920e 073e accf b63d 2fce a5bd
00000090: 6712 0c3d 8972 47bb a91c eb3d e5b0 d43d
000000a0: c5b8 563e 3936 efbd 485e 9d3c 3387 35be
000000b0: 28e5 c1bd 7a3c 98bd 14fd 2c3e 14bb 44bc
000000c0: 5018 0abe 1626 1f3e 7866 1abe 31b3 62be
000000d0: 327a 383b 437a 8fbd fad9 863d 7a91 05bd
000000e0: fae4 4e3e 8ed2 bd3d aa97 b5bd bb9a e83d
000000f0: 6582 b43c 1897 9abc bd3f 5fbe 9cc9 f1bd
00000100: b9c2 8a3d 7f8f f03d d84a 5dbd 224c abbd
00000110: 89bc 08bd 5ca6 233d b3af 81bd 17ac dbbc
00000120: 8fbf 523d 7731 88be afdc 913d 831d 8dbd
00000130: f2b7 e73d 9080 64bd 4c07 06be ab23 123e
00000140: db08 12bc 21bc 6dbc 9bba c8bd 74c8 833d
00000150: 6381 433e 608d f63d e0f6 81be f418 2b3d
00000160: 6b8a 0f3e bbf1 c83c c7ea 1fbe ef35 973d
00000170: 8d1e bbbd 6e77 cabd 2f5e 51bd 61cc 093d
00000180: 3e3b 5b3d 16d4 183c 1048 7c3d e360 19be
00000190: 128b 97bd 9ec8 413d bd48 a5bd c3b7 38ba
000001a0: 4ee8 41be 4702 6e3d 7c5e 5e3d 2862 7c3e
000001b0: d0a2 cebd 9828 dbbd 5cac f33d 2f52 69bd
000001c0: af8f 153d 08b4 ef3d 28e3 6f3e e6e7 2f3e
000001d0: 8c1d 833d aae7 813c 928e bbbd d4b8 0abe
000001e0: 1580 3b3c 76bb dcbd 0f5e 303e bd9b a4bd
000001f0: 2761 ce3b 8e94 0fbe ac6e ee3c dc0e 5f3d
00000200: b03c b7bd 9203 b0bd 6d32 16be 4b5f 653d
00000210: 73a3 57be ac78 813d dd20 c2bd 33dc 133e
00000220: e1e7 c03b a2bc 7fbd 868f 01be aabe 89bd
00000230: 3707 f13d 3ff6 233e 6e04 d4bd b80c db3d
00000240: af77 e1bd 7810 863d 0052 12bd 6739 f4bb
00000250: 5461 16bd 9a86 e8bc a42a 873e 06da c1bd
00000260: 5c6e 103e a6df c5bc 43f9 3cbd c631 fdbd
00000270: 2ae6 503e ea83 043e e860 32be 72bf 69ba
00000280: 8d02 1dbc c5f7 0fbc 5a38 d23d 74eb db3d
00000290: eb0e 4dbd ea8b edbb b091 38bd 4ddd 13bb
000002a0: 13e1 b4bd d3ed a23d e474 063d ffe1 63ba
000002b0: 3362 b73c 97ea b7bb c39f 32be cfd8 37bd
000002c0: e049 5e3e 9a5f d63d 6999 9d3d 7d9e fdbd
000002d0: 7660 c3bd a287 84be c8a9 2abe f9c2 c93d
000002e0: d86a c93d f55c 703d 9e0d 2c3e 7844 08be
000002f0: 7049 d53d 16bc 4bbd 28d0 e83c 6da3 cdbd
00000300: 5885 a7bd 6c9b 8bbd 0be6 b1bd 2b0e 393e
00000310: 4fd6 26bd 7fc8 30bd e258 503d 91fa 06be
00000320: bb76 6ebb 3aab 38be 5091 dabd f55d 333d
00000330: 65e6 aa3d 6eb2 143c 3d1c 55bd d865 26be
00000340: 520a 8d3d e9af 26bd b2a8 74bd fc40 ebbd
00000350: bf55 c8bd bae6 aebd 6f7a 2f3e 3dd7 b83d
00000360: 36bb 253e e17d c5bd ecc0 d6bd 326c d0bd
00000370: 7772 a63d dc2a f73d bacb d2bd e365 f1bd
00000380: 9746 0dbe e930 b6bc 449e 1a3e a684 52bd
00000390: 86f3 94bd 6858 bb3d 77ef 16be 1fe1 b23d
000003a0: 5164 df3d 3a02 bd3d 78b0 5a3d b527 463e
000003b0: 7155 8dba a322 423d 0de7 bdbd 0e50 ad3d
000003c0: b4d5 bfbd dfca 373d 83b2 16bd 81c7 5abe
000003d0: 4cec b13d f9ff 17be 6500 e03d 47b5 36be
000003e0: 4601 3abe c3ab 4a3d 7273 2cbe be2d 643e
000003f0: bf70 aa3c ac53 593e 8d88 703e f4a5 33bd

fc3.bias f4 [10]
-0.06863421 0.0077138627 -0.015921421 0.07479632 0.045090914 0.08921523 0.05355102 0.051244043
-0.10044459 0.09170044
00000000: 1890 8cbd 92c4 fc3b a46d 82bc d02e 993d
00000010: 40b1 383d 79b6 b63d 5058 5b3d 46e5 513d
00000020: e5b5 cdbd 71cd bb3d
